game/file2/net.pth (torch, 58903 bytes, 11 tensors)

rnn.weight_ih_l0 f4 [128, 1]
-0.30904007 0.13012236 -0.5773791 1.4008895 0.9125015 0.09342647 1.091181 0.9959451
-0.65934664 -0.11623261 -0.57597375 0.9854309 0.79144216 0.6357746 -0.10548614 -0.36687467
-0.33845833 0.59785616 -0.04459713 -0.16351116 -0.002502684 -0.14000906 -0.35663804 -0.23233
0.19015746 0.45181838 0.6760801 0.90297115 -0.114758804 0.008462077 0.09711734 -0.05872485
-0.31378365 -0.29181764 0.30293006 -0.050732415 -0.69368637 -0.102246046 1.3869952 -0.59622383
-0.33880493 -0.41369715 -1.08376 -0.112031944 -1.0579547 -0.9838729 0.10597063 -0.22245197
-0.46010444 -0.17199351 -0.43323755 -0.28971723 -0.16555122 -0.081369705 -0.31316546 -0.13596524
-0.13988881 0.2638229 -0.5606107 0.50629026 -0.09668739 -0.2095629 -0.099829085 -0.35892045
0.06760592 0.42754212 0.2373861 0.018222911 -1.4369863 -0.1920413 0.86375016 0.11517833
0.087568924 0.10573257 -0.166068 0.5130798 -0.3700048 0.18904932 -0.7869745 0.11486739
-0.27961844 -0.09972159 0.084036306 -0.15831071 -0.4026916 -0.012516005 0.20800866 -0.0011511456
-0.048014086 -0.39581582 0.007869573 0.15508708 -0.17328426 -0.31784958 0.5757421 0.44500178
-0.26373684 0.49409825 0.03635331 1.6476045 1.4856482 0.27708343 1.8345803 1.0131909
-1.4524548 -0.11151009 -1.6176299 0.80655026 0.9192633 0.2927005 -0.026391504 -0.37858567
0.24543878 0.123234674 0.21399717 0.003985892 -0.38229942 -0.08725862 0.006055185 -0.0044356943
-1.5143231 0.83554316 0.7480529 0.8963158 0.16141108 -0.1250098 0.059382662 -1.074388
00000000: 803a 9ebe cc3e 053e 1ecf 13bf 5950 b33f
00000010: b399 693f 6156 bf3d d2ab 8b3f 42f6 7e3f
00000020: f1ca 28bf 5d0b eebd 0473 13bf 3345 7c3f
00000030: f49b 4a3f 20c2 223f 1e09 d8bd ffd6 bbbe
00000040: 694a adbe 1a0d 193f 7bab 36bd 786f 27be
00000050: 1204 24bb 895e 0fbe 4399 b6be eae7 6dbe
00000060: a3b8 423e bd54 e73e 9613 2d3f 1e29 673f
00000070: aa06 ebbd 86a4 0a3c 75e5 c63d 7889 70bd
00000080: 40a8 a0be 1f69 95be a619 9b3e cbcc 4fbd
00000090: 6e95 31bf 6066 d1bd 0f89 b13f 20a2 18bf
000000a0: d777 adbe 1dd0 d3be a6b8 8abf 0171 e5bd
000000b0: 0f6b 87bf 18df 7bbf 2107 d93d 73ca 63be
000000c0: cf92 ebbe 111f 30be 50d1 ddbe d155 94be
000000d0: 4286 29be 29a5 a6bd 3957 a0be 793a 0bbe
000000e0: 033f 0fbe cc13 873e 2f84 0fbf 3d9c 013f
000000f0: 0a04 c6bd a897 56be 3173 ccbd 6cc4 b7be
00000100: f974 8a3d cde6 da3e 5815 733e 3748 953c
00000110: 2bef b7bf 79a6 44be bb1e 5d3f 9ee2 eb3d
00000120: 5657 b33d 518a d83d bb0d 2abe 3359 033f
00000130: 4571 bdbe 2596 413e 2977 49bf 983f eb3d
00000140: 262a 8fbe d53a ccbd 3a1b ac3d 341c 22be
00000150: 982d cebe ee0f 4dbc 3900 553e 09e2 96ba
00000160: 6baa 44bd 5fa8 cabe 62ef 003c 26cf 1e3e
00000170: 6e71 31be 2ebd a2be d663 133f 46d7 e33e
00000180: 8408 87be 72fa fc3e 35e7 143d b4e4 d23f
00000190: b829 be3f e1dd 8d3e 87d3 ea3f 3db0 813f
000001a0: 0aea b9bf 675f e4bd 7f0e cfbf 147a 4e3f
000001b0: d754 6b3f d7dc 953e ff32 d8bc fbd5 c1be
000001c0: 4e54 7b3e 7662 fc3d 1322 5b3e 169c 823b
000001d0: c0bc c3be a6b4 b2bd 936a c63b 4d59 91bb
000001e0: 57d5 c1bf 28e6 553f 6580 3f3f f474 653f
000001f0: f248 253e 9202 00be 3c3b 733d 8c85 89bf

rnn.weight_hh_l0 f4 [128, 32]
0.10383222 -0.16316599 -0.19885655 0.061094247 -0.06289514 0.09193455 -0.029169146 -0.07876866
-0.11502264 -0.17905876 -0.17929992 0.11969861 -0.21802689 -0.08182857 0.21565972 -0.0817119
0.07562228 -0.05572808 0.2947778 0.009663604 0.2466234 -0.34990704 0.016461594 -0.099871054
0.067080915 0.14399135 -0.24426062 0.19803302 -0.04321405 0.34694883 -0.0020559381 -0.0665583
-0.5382194 0.16390656 -0.6581847 -0.19623886 0.4980753 -1.0206313 0.5034708 0.31755006
-0.42360896 1.1957878 0.7472701 0.44301307 0.24808359 0.14383367 0.041451074 0.51114434
0.13904901 -0.7696508 0.08334145 -0.016427372 0.76915807 -0.27589235 0.301818 0.050001588
-0.5297801 -1.1520472 0.29326925 0.88148916 0.5230934 -1.0636854 -0.43988016 -1.1247414
0.3926323 0.068761736 0.07175004 0.70720655 -0.6132848 0.122617245 0.10689653 -0.65344757
0.040467978 -0.19681674 0.25582713 -0.24819666 -0.10830897 1.0628786 0.20729743 -0.7519415
-0.40103126 -0.19889264 0.331257 0.2076688 0.31680647 0.2798957 0.06629196 0.48076928
-0.27020302 0.34724313 -0.5154727 0.3351137 0.13879016 0.25783664 -0.8714626 -0.077153675
-0.03541208 -0.57586294 0.20867845 0.6024276 -0.91814214 -0.030984938 0.78030246 1.1023262
-0.5592912 0.15560675 0.7030925 0.16450453 -0.038094234 0.29855236 -0.2849614 0.38781688
0.18556203 0.37870735 0.023439255 -0.0046496405 -0.29131708 0.525824 0.7055278 0.107143566
-0.57735455 -0.43176836 0.27501026 1.0491672 0.055999737 -0.15579006 -0.28791234 -0.49008465
-0.41769654 -0.6577646 1.0699974 1.0625197 -1.1063627 -0.18331702 1.1528387 1.0221522
-0.38591477 0.034424268 0.98842376 1.8233812 1.0428144 -0.9327903 -1.3443079 1.580883
-0.67757064 -1.2456361 0.06935722 0.6520958 -0.59256387 0.22127685 0.5207896 -0.08735251
-0.84993005 0.47027123 1.1894851 1.686819 0.29672778 -0.5455816 -0.58572114 -0.5962728
-0.19303147 0.4121068 -0.21938801 -0.11605424 -0.0023429508 -0.13160442 0.54664075 0.5023144
-0.22193554 0.6582836 0.17407215 0.85849196 0.0050479136 -0.6501183 -0.24549359 -0.025191735
0.04447372 -0.40639666 0.09034731 -0.1199871 0.10978095 0.09791848 0.30217332 -0.196348
-0.32928744 -0.56765175 0.5412285 0.24960533 0.02907343 -0.26418987 -0.15052271 -0.83359385
0.21938655 0.07266057 -0.019411422 -0.18555617 -1.1964355 -0.92770356 0.99880916 0.6046384
-1.101072 0.94275934 0.031251706 1.4458677 0.5259406 -1.0215143 0.029572183 0.58484286
0.18522958 -0.25456944 -0.16156167 0.2776181 1.0064199 0.66052544 0.6427786 0.11285886
-0.86970776 -0.4991074 0.117528744 0.70265263 -0.11093545 -0.7649483 -0.37705535 -0.7124808
-0.3351706 -1.3440473 -0.22750814 1.4937975 -0.8481989 -0.28060725 -0.13562815 0.46897033
-0.5531134 -0.5039363 0.39620036 -0.45250776 -0.8400961 -0.107809275 0.73345035 -0.420747
0.7889733 0.96323776 1.3599724 0.24682556 0.3437105 1.2428089 -0.021995962 0.29431283
0.13251178 -0.50956166 -0.40440512 0.5891298 -1.0344391 0.6493207 0.2746642 -0.62771326
00000000: fda5 d43d fc14 27be 0da1 4bbe f63d 7a3d
00000010: 2bcf 80bd 2e48 bc3d 22f4 eebc 7751 a1bd
00000020: fd90 ebbd 2e5b 37be 669a 37be 8b24 f53d
00000030: 7142 5fbe bd95 a7bd e7d5 5c3e 9258 a7bd
00000040: dbdf 9a3d 2143 64bd 1eed 963e 1854 1e3c
00000050: d88a 7c3e 0427 b3be 77da 863c 3289 ccbd
00000060: b861 893d 7872 133e 751f 7abe 2bc9 4a3e
00000070: 3701 31bd 47a3 b13e ebbc 06bb b84f 88bd
00000080: bfc8 09bf 1fd7 273e cb7e 28bf d7f2 48be
00000090: ba03 ff3e 0ca4 82bf 76e3 003f ec95 a23e
000000a0: 46e3 d8be 930f 993f 184d 3f3f 9cd2 e23e
000000b0: a009 7e3e 2249 133e 9ac8 293d 5bda 023f
000000c0: dd62 0e3e d607 45bf ecae aa3d b292 86bc
000000d0: 8be7 443f c341 8dbe e487 9a3e 77ce 4c3d
000000e0: ab9f 07bf 4876 93bf 6327 963e 46a9 613f
000000f0: 73e9 053f d826 88bf f937 e1be 87f7 8fbf
00000100: 1a07 c93e f4d2 8c3d aff1 923d 7d0b 353f
00000110: 3c00 1dbf c01e fb3d 91ec da3d 5748 27bf
00000120: c0c1 253d 548a 49be c6fb 823e 4427 7ebe
00000130: 18d1 ddbd 680c 883f c745 543e 3d7f 40bf
00000140: f853 cdbe 83aa 4bbe 849a a93e 21a7 543e
00000150: 7534 a23e 7d4e 8f3e 14c4 873d 6427 f63e
00000160: 0d58 8abe dac9 b13e 05f6 03bf 0694 ab3e
00000170: 021f 0e3e 2a03 843e 2c18 5fbf bf02 9ebd
00000180: 420c 11bd c16b 13bf ceaf 553e b238 1a3f
00000190: 5d0b 6bbf 20d4 fdbc e7c1 473f 0619 8d3f
000001a0: b52d 0fbf 6057 1f3e dffd 333f e073 283e
000001b0: b308 1cbd dbdb 983e 76e6 91be ef8f c63e
000001c0: f903 3e3e eee5 c13e ae03 c03c 035c 98bb
000001d0: 8327 95be 679c 063f 789d 343f 166e db3d
000001e0: 82cd 13bf be10 ddbe 25ce 8c3e 1c4b 863f
000001f0: fb5f 653d 6e87 1fbe 3f69 93be 60ec fabe
00000200: 52dc d5be 4363 28bf adf5 883f a500 883f
00000210: 4b9d 8dbf 75b7 3bbe 3890 933f e2d5 823f
00000220: 9f96 c5be 7600 0d3d 5709 7d3f 8e64 e93f
00000230: f17a 853f 58cb 6ebf 4812 acbf 605a ca3f
00000240: 4575 2dbf 0171 9fbf 280b 8e3d c0ef 263f
00000250: 44b2 17bf 6696 623e 7852 053f dfe5 b2bd
00000260: 0495 59bf 64c7 f03e 0c41 983f afe9 d73f
00000270: b4ec 973e 3cab 0bbf d2f1 15bf 56a5 18bf
00000280: 0baa 45be aaff d23e 40a7 60be d8ad edbd
00000290: 318c 19bb 4fc3 06be a6f0 0b3f ad97 003f
000002a0: 1243 63be 4685 283f f83f 323e 21c6 5b3f
000002b0: f868 a53b 276e 26bf ac62 7bbe e65e cebc
000002c0: 132a 363d 3913 d0be 0308 b93d ccbb f5bd
000002d0: d6d4 e03d 7c89 c83d 76b6 9a3e 730f 49be
000002e0: 5d98 a8be a051 11bf f38d 0a3f 8a98 7f3e
000002f0: 672b ee3c e543 87be a022 1abe 6866 55bf
00000300: dea6 603e 11cf 943d b404 9fbc 7002 3ebe
00000310: cc24 99bf fb7d 6dbf f5b1 7f3f 95c9 1a3f
00000320: edef 8cbf ad58 713f ca01 003d 3112 b93f
00000330: 0ba4 063f fbc0 82bf 5d41 f23c 43b8 153f
00000340: d3ac 3d3e ed56 82be 6c70 25be f623 8e3e
00000350: 5ed2 803f 3218 293f 238d 243f 8c22 e73d
00000360: 2ba5 5ebf 018b ffbe e9b2 f03d 0be1 333f
00000370: 2032 e3bd a7d3 43bf 660d c1be 2465 36bf
00000380: 7b9b abbe be09 acbf e5f7 68be c234 bf3f
00000390: 9023 59bf c1ab 8fbe 1be2 0abe e11c f03e
000003a0: d798 0dbf f801 01bf c6da ca3e 19af e7be
000003b0: 8a10 57bf 1ccb dcbd 67c3 3b3f 276c d7be
000003c0: 27fa 493f c096 763f 9313 ae3f d7bf 7c3e
000003d0: d3fa af3e 5d14 9f3f e030 b4bc 2cb0 963e
000003e0: 2bb1 073e a272 02bf 300e cfbe 36d1 163f
000003f0: 8068 84bf e239 263f c9a0 8c3e d1b1 20bf

rnn.bias_ih_l0 f4 [128]
0.044208907 0.06760126 -0.24202618 0.27681354 0.41529375 0.047845937 0.551188 0.63942677
-0.0070865788 0.18969011 0.1717576 0.29531258 -0.31074363 0.2720296 0.120900445 -0.24242242
0.4998013 0.10205326 -0.2392321 0.059054505 0.17969817 0.09109338 -0.38312846 -0.37572148
0.08909544 -0.021144217 0.080161326 0.3927447 -0.090551734 -0.019932397 -0.07028664 0.09487712
-0.22419544 -0.45536843 -0.35310864 -0.5650552 -0.15754001 -0.2808717 -0.16647193 -0.42449784
0.0646565 -0.14915833 -0.43630007 -0.21328647 0.16360681 -0.17597269 -0.1557927 -0.296616
0.07274638 -0.20137538 -0.2917013 -0.2790643 -0.18155499 0.27289248 -0.36031953 -0.250377
0.0045515015 -0.11180755 -0.12485463 -0.104557924 -0.16196121 -0.08698494 -0.39038068 0.16465153
-0.004763344 -0.17061503 0.17608719 1.3388226e-05 0.06621255 0.21523924 -0.11658429 0.15041772
0.13025321 -0.16361174 -0.06993706 0.03822715 0.24358757 0.031753797 0.03564458 0.095801786
0.18915315 0.13497825 0.06639646 -0.0593069 -0.07462876 0.1506628 -0.25354695 -0.092104234
-0.045506574 0.08424147 0.005458587 0.038533334 0.027840825 0.12400431 0.0066116 0.034495942
-0.086112045 -0.03014189 -0.20142132 0.2172405 0.54451454 -0.31630772 0.31973317 0.44582796
-0.05643325 0.1320395 -0.15696265 0.07657665 -0.21346717 0.42640826 0.12435466 -0.0023558708
0.03392919 -0.10560608 -0.06843434 -0.09121184 -0.3370312 0.33777705 -0.00095720583 -0.37784317
0.027243994 -0.27222982 0.33051327 0.25830394 -0.03759226 0.06328259 0.14426926 0.17547376
00000000: 6614 353d 8872 8a3d b6d5 77be 81ba 8d3e
00000010: 62a1 d43e 1afa 433d a81a 0d3f 79b1 233f
00000020: 8836 e8bb 203e 423e 39e1 2f3e 3633 973e
00000030: ca19 9fbe 7747 8b3e a79a f73d 953d 78be
00000040: f5e5 ff3e 4d01 d13d 42f9 74be 23e3 713d
00000050: cc02 383e 2a8f ba3d 6a29 c4be 915e c0be
00000060: ac77 b63d a336 adbc 9f2b a43d d515 c93e
00000070: 3073 b9bd 4449 a3bc 71f2 8fbd ef4e c23d
00000080: 7d93 65be 0d26 e9be a8ca b4be 75a7 10bf
00000090: 2b52 21be 6ace 8fbe 9e77 2abe c857 d9be
000000a0: a16a 843d f6bc 18be b962 dfbe c567 5abe
000000b0: 8b88 273e 2f32 34be 1f88 1fbe 0dde 97be
000000c0: 0efc 943d 5935 4ebe df59 95be 84e1 8ebe
000000d0: 8de9 39be 90b8 8b3e cd7b b8be 6a31 80be
000000e0: c324 953b 5bfb e4bd c9b3 ffbd 7722 d6bd
000000f0: 29d9 25be 2925 b2bd fadf c7be 699a 283e
00000100: d315 9cbb b5b5 2ebe 3350 343e fe9d 6037
00000110: 729a 873d ad67 5c3e bfc3 eebd 1a07 1a3e
00000120: 1961 053e d689 27be 293b 8fbd 1294 1c3d
00000130: 056f 793e 4510 023d 0d00 123d ba33 c43d
00000140: 5db1 413e bd37 0a3e defa 873d cbeb 72bd
00000150: f7d6 98bd 5947 1a3e e8d0 81be 25a1 bcbd
00000160: 1a65 3abd cb86 ac3d f2dd b23b 21d5 1d3d
00000170: 7112 e43c f9f5 fd3d 1fa6 d83b 9e4b 0d3d
00000180: 835b b0bd 20ec f6bc 6441 4ebe 4b74 5e3e
00000190: 4e65 0b3f 16f3 a1be 11b4 a33e 9043 e43e
000001a0: 8d26 67bd 5d35 073e d1ba 20be 38d4 9c3d
000001b0: 2397 5abe 2f52 da3e a8ad fe3d f464 1abb
000001c0: 56f9 0a3d 0048 d8bd 4e27 8cbd 46cd babd
000001d0: 5a8f acbe 1df1 ac3e ffec 7aba a974 c1be
000001e0: cc2e df3c b561 8bbe 0939 a93e 6a40 843e
000001f0: 57fa 19bd 4d9a 813d 52bb 133e 65af 333e

rnn.bias_hh_l0 f4 [128]
-0.2774913 0.32319632 -0.30234027 0.2535712 0.38635018 0.12431844 0.756096 0.7875611
0.029791517 0.14053074 0.15278715 0.15323666 -0.24707699 0.25006205 0.07076084 -0.27787828
0.3598503 -0.16496634 -0.38337153 -0.10763291 0.0826069 0.30218998 -0.23516901 -0.3281357
0.34920338 0.009228115 0.19872716 0.10609237 -0.14732964 -0.11086816 0.0034456914 0.1994368
-0.12471618 -0.34927684 -0.045615386 -0.67300516 -0.29064676 -0.2810219 -0.12810811 -0.37868103
-0.16653337 -0.3166914 -0.37972006 -0.10340531 0.03513976 -0.40886217 -0.21189843 -0.39620733
-0.0022519464 -0.28284237 -0.12399701 -0.17849857 -0.031078095 0.16850127 -0.16948108 -0.19759522
-0.0041041323 -0.18794574 -0.43487555 -0.3479106 -0.27459586 -0.047734696 -0.13897347 0.38899142
0.032823876 -0.30595863 0.07609356 0.23933543 0.11477124 -0.06975163 0.0036296481 -0.11335418
0.054500643 -0.00377755 0.20794514 0.11224025 0.24360913 -0.2914129 0.11085699 0.1981731
-0.01274928 0.06547845 -0.0024647233 0.12119066 -0.323847 0.088481136 -0.0049215783 0.044651866
-0.12374732 0.09374662 -0.13691014 0.19648297 -0.14493454 0.07717259 0.17175862 -0.1629131
-0.16539073 -0.06993924 -0.22958772 0.20342438 0.33577138 -0.4277837 0.47838768 0.6335287
-0.07352679 -0.09942761 -0.27854854 0.11792046 -0.017253876 0.26196793 0.3161245 -0.21175656
-0.0029503992 0.030435096 -0.051048957 -0.10985256 -0.18843427 0.30415356 -0.010324026 -0.1243349
-0.15026361 -0.23476791 0.26539662 0.52290344 -0.14565507 0.11297127 0.014122014 0.2751147
00000000: 5713 8ebe fd79 a53e 58cc 9abe 16d4 813e
00000010: b1cf c53e ab9a fe3d 828f 413f 9b9d 493f
00000020: 570d f43c 4ae7 0f3e 3c74 1c3e 12ea 1c3e
00000030: c001 7dbe 2208 803e 0feb 903d 1046 8ebe
00000040: 4c3e b83e f0ec 28be 4649 c4be a56e dcbd
00000050: ce2d a93d a5b8 9a3e 25d0 70be 6701 a8be
00000060: c9ca b23e 8531 173c 227f 4b3e f546 d93d
00000070: 95dd 16be d90e e3bd 1cd1 613b 2939 4c3e
00000080: 326b ffbd 6ad4 b2be 33d7 3abd 114a 2cbf
00000090: a7cf 94be 1ae2 8fbe c62e 03be 7be2 c1be
000000a0: b987 2abe 6025 a2be ab6a c2be 2ac6 d3bd
000000b0: b5ee 0f3d 6256 d1be e7fb 58be b0db cabe
000000c0: 6495 13bb b7d0 90be 25f2 fdbd 54c8 36be
000000d0: 7d97 febc 998b 2c3e 738c 2dbe 6756 4abe
000000e0: f57b 86bb d974 40be 02a8 debe 5721 b2be
000000f0: d497 8cbe 7585 43bd 104f 0ebe e229 c73e
00000100: 5472 063d 9ca6 9cbe f1d6 9b3d 5914 753e
00000110: 2f0d eb3d f1d9 8ebd 64df 6d3b 3c26 e8bd
00000120: 113c 5f3d c690 77bb 92ef 543e 37de e53d
00000130: ac74 793e 1234 95be fd08 e33d e4ed 4a3e
00000140: 5be2 50bc 9119 863d 3287 21bb cf32 f83d
00000150: 46cf a5be 9935 b53d 3145 a1bb e0e4 363d
00000160: 3c6f fdbd 3afe bf3d 2c32 0cbe d532 493e
00000170: b869 14be aa0c 9e3d 7ee1 2f3e b1d2 26be
00000180: 305c 29be 4e3c 8fbd 0b19 6bbe 7b4e 503e
00000190: 3aea ab3e 7706 dbbe 3bef f43e f02e 223f
000001a0: 3795 96bd b4a0 cbbd ea9d 8ebe 4880 f13d
000001b0: 0058 8dbc a920 863e 12db a13e b6d6 58be
000001c0: 7c5b 41bb 0653 f93c b618 51bd 61fa e0bd
000001d0: eaf4 40be 04ba 9b3e 1b26 29bc 4ca3 febd
000001e0: b4de 19be 0067 70be 11e2 873e 00dd 053f
000001f0: 9a26 15be 7b5d e73d 0560 673c d5db 8c3e

rnn.weight_ih_l1 f4 [128, 32]
-0.19832698 0.5652488 -0.06858779 0.07023185 1.2323282 -0.10325875 0.5558633 0.31208196
-0.19971162 0.057243247 0.65059805 0.54532635 0.73286575 0.10113651 0.08924923 0.21927361
0.356879 -0.19656338 -0.15177669 -0.40782207 -0.11815035 0.12853196 -0.5322085 -0.26338953
-0.9780048 -0.33647895 -0.20975047 0.3991792 0.08203768 0.07805881 -0.012470771 -0.30485022
-0.80030227 0.3153846 -0.47677562 0.431702 0.7034431 -0.49106947 -0.23472685 1.4034066
-0.07532073 0.87071294 0.7181285 -0.28226805 0.31920582 0.015739825 0.4006935 0.5654791
0.195202 0.42719746 -0.32568386 0.40963924 0.2077864 1.20492 -0.081888735 0.11147384
0.113103256 -0.6134442 0.13604783 -0.9553159 -0.5478162 -0.4425446 -0.53430265 -0.9306226
-0.18081099 -0.121091425 -0.23774564 -0.49227092 1.48046 -0.4397947 0.17480518 0.49085313
-0.08281056 0.5075509 0.19161561 0.5126733 0.17932333 -0.24471931 0.36372998 0.36113414
-0.39818367 0.04129388 -0.12073374 0.015358868 0.045863315 -0.0042579523 0.16295284 -0.15201022
-0.3191623 -0.21705392 0.20250058 0.70848894 0.07379338 -0.06267558 0.08481207 -0.13227071
-0.23119688 1.0431435 0.022981627 -0.6984719 1.3014207 -0.30512935 0.68835807 -0.2885375
0.05728688 0.22239335 -0.12601484 -0.0609917 0.6163951 0.2647423 -0.12492883 -0.22499044
-0.19710372 -0.55080163 -0.2021273 -0.19102702 0.48692405 -0.15246668 -0.28509426 -0.08653082
0.19505142 -0.39177036 0.06538366 -0.4332241 0.22203866 -0.3813607 -0.6447815 0.026102377
0.08614278 -0.4011091 0.064058125 0.14541015 0.5889567 -0.30730724 0.2542915 0.30244228
-0.19579872 0.05395438 0.116655156 0.4278584 0.13955112 0.37553418 0.23440826 0.33759946
0.08316341 0.16217172 -0.027534854 0.2423725 -0.08900817 0.124293596 -0.42256188 -0.22208965
-0.20155108 -0.1038471 -0.06975326 0.51635885 0.012551079 -0.08848957 -0.17741376 -0.19679867
-0.00032750284 0.47390503 -0.07895941 -0.16813351 0.8835567 -0.18373021 0.65605253 0.053325437
0.2845591 -0.11270415 0.05956898 0.19800137 0.05901272 0.047435343 0.14254367 0.20870261
0.033164106 0.03619534 -0.2213758 -0.12445279 -0.10811674 -0.21009007 -0.30655104 0.017506778
-0.13398506 -0.13644749 0.083948515 0.13915566 0.24966262 -0.047540803 -0.037099637 0.25475362
-0.2723792 0.081494175 -0.55144465 -0.4805528 0.5311108 -0.98304373 0.5294678 -0.34500673
-0.72924674 1.1623926 1.1984619 -0.36705944 -0.02368543 0.5329513 0.8254108 0.9633574
1.0026414 -0.5664093 0.36225724 -0.6252239 0.39819583 0.4536282 0.029569319 0.2378802
-1.1296861 -1.252351 -1.0587946 1.5221529 0.725778 0.5132103 -0.177955 -1.019044
-0.24213253 -0.22269647 0.07776097 0.22261934 -0.59265655 -0.23751616 -0.44850925 0.048714917
-0.084758736 0.26881367 -0.062814474 -0.20698401 0.06852107 0.15927441 0.508664 0.2710563
0.47319287 0.17370006 -0.2202958 0.022095252 0.04730728 -0.09450116 -0.23651096 0.027351202
0.01513881 -0.123776205 0.15749006 -0.4399341 0.15381116 0.20145823 0.077070266 -0.40904936
00000000: 3a16 4bbe 25b4 103f c177 8cbd b7d5 8f3d
00000010: eebc 9d3f 5379 d3bd 0f4d 0e3f 35c9 9f3e
00000020: 3481 4cbe e577 6a3d 988d 263f 829a 0b3f
00000030: 179d 3b3f a920 cf3d 4dc8 b63d 4389 603e
00000040: d8b8 b63e e947 49be 596b 1bbe 0ece d0be
00000050: d0f8 f1bd e29d 033e d13e 08bf feda 86be
00000060: 865e 7abf f846 acbe d4c8 56be 3761 cc3e
00000070: 5f03 a83d 4cdd 9f3d 3452 4cbc 5415 9cbe
00000080: 9ce0 4cbf 177a a13e ef1b f4be 0b08 dd3e
00000090: d914 343f 756d fbbe 3c5c 70be d4a2 b33f
000000a0: c141 9abd 0be7 5e3f 45d7 373f 7085 90be
000000b0: f26e a33e cef0 803c b327 cd3e 3dc3 103f
000000c0: 08e3 473e a0b9 da3e 09c0 a6be 3cbc d13e
000000d0: f5c5 543e d23a 9a3f 48b5 a7bd 664c e43d
000000e0: aea2 e73d ae0a 1dbf 1f50 0b3e 958f 74bf
000000f0: af3d 0cbf 3595 e2be 0fc8 08bf 483d 6ebf
00000100: 8426 39be c8fe f7bd 9873 73be ef0a fcbe
00000110: b77f bd3f c52c e1be 2100 333e 1a51 fb3e
00000120: 9598 a9bd dbee 013f e236 443e 8f3e 033f
00000130: 89a0 373e b397 7abe d13a ba3e 93e6 b83e
00000140: bbde cbbe c623 293d 4043 f7bd c3a3 7b3c
00000150: 2cdb 3b3d 4b86 8bbb 1cdd 263e 91a8 1bbe
00000160: 3e69 a3be 6243 5ebe 505c 4f3e 885f 353f
00000170: fc20 973d 0e5c 80bd f3b1 ad3d f971 07be
00000180: e0be 6cbe ba85 853f f743 bc3c 0ecf 32bf
00000190: f494 a63f ea39 9cbe 3c38 303f 30bb 93be
000001a0: a6a5 6a3d 15bb 633e 090a 01be 6fd2 79bd
000001b0: 12cc 1d3f 4e8c 873e b0da ffbd e563 66be
000001c0: 8fd5 49be 5601 0dbf 75fa 4ebe 969c 43be
000001d0: 1c4e f93e 3a20 1cbe e0f7 91be 1237 b1bd
000001e0: 8fbb 473e 2096 c8be dee7 853d 8dcf ddbe
000001f0: 1a5e 633e b641 c3be 6610 25bf a7d4 d53c
00000200: a06b b03d 2c5e cdbe e830 833d 66e6 143e
00000210: dec5 163f 6057 9dbe 7f32 823e b7d9 9a3e
00000220: 767f 48be 45ff 5c3d e6e8 ee3d 4210 db3e
00000230: 7de6 0e3e 0446 c03e b808 703e d6d9 ac3e
00000240: 9451 aa3d 5810 263e c690 e1bc 7f30 783e
00000250: ea49 b6bd a48d fe3d 085a d8be 786b 63be
00000260: 6863 4ebe caad d4bd ccda 8ebd 1830 043f
00000270: 0aa3 4d3c 053a b5bd f4ab 35be 9785 49be
00000280: b0b4 abb9 aea3 f23e 79b5 a1bd 312b 2cbe
00000290: c630 623f c623 3cbe 0ff3 273f c66b 5a3d
000002a0: bbb1 913e 6fd1 e6bd 9afe 733d dfc0 4a3e
000002b0: 52b7 713d 904b 423d f8f6 113e 23b6 553e
000002c0: 16d7 073d 9141 143d 56b0 62be 1be1 febd
000002d0: 4f6c ddbd da21 57be 42f4 9cbe 606a 8f3c
000002e0: 6133 09be e4b8 0bbe 33ed ab3d d27e 0e3e
000002f0: 8fa7 7f3e 25ba 42bd caf5 17bd 116f 823e
00000300: 4975 8bbe 6be6 a63d 7a2b 0dbf 040b f6be
00000310: e1f6 073f c1a8 7bbf 348b 073f b9a4 b0be
00000320: eaaf 3abf 48c9 943f 3367 993f 37ef bbbe
00000330: f207 c2bc 7f6f 083f 1f4e 533f 979e 763f
00000340: 8e56 803f 3300 11bf c879 b93e ac0e 20bf
00000350: 53e0 cb3e f541 e83e 5b3b f23c de96 733e
00000360: 8e99 90bf 0a4d a0bf 9586 87bf e8d5 c23f
00000370: 96cc 393f c061 033f d639 36be 0970 82bf
00000380: 97f1 77be 8b0a 64be 2541 9f3d 53f6 633e
00000390: 57b8 17bf 7037 73be 01a3 e5be 4b89 473d
000003a0: fd95 adbd f2a1 893e e0a4 80bd 9ef3 53be
000003b0: c654 8c3d d518 233e ce37 023f e4c7 8a3e
000003c0: 5646 f23e 6ede 313e 3995 61be 1a01 b53c
000003d0: 47c5 413d d389 c1bd ee2f 72be a10f e03c
000003e0: c508 783c 617e fdbd 1345 213e 0b3f e1be
000003f0: ac80 1d3e 114b 4e3e 04d7 9d3d eb6e d1be

rnn.weight_hh_l1 f4 [128, 32]
-0.07131502 -0.5132619 0.07140287 0.13168877 -0.06356971 0.13607545 -0.26183212 0.030009804
0.37415937 -0.23442946 -0.102555275 -0.3522687 0.08317865 -0.3741024 -0.044141084 0.008231892
-0.28193858 0.37605083 0.43921676 -0.094213136 -0.08888888 0.06989501 -0.18378982 0.22971521
-0.6482071 -0.13965371 0.4578749 0.19898799 0.8356323 0.2143798 0.29596037 0.17710353
-0.55430835 -0.20023087 0.067150466 -0.38618502 -0.7422348 0.67647606 0.12712805 0.43965423
-0.21771958 -0.5702919 1.3494966 -1.8007066 0.16949359 1.2572381 -1.0868576 -1.370661
0.90245116 1.2897774 1.1257963 -0.1867931 0.82160276 -0.29289508 1.2707475 0.936452
-0.10921616 -0.34022835 0.51088285 -0.21335763 -0.8841943 0.5366125 0.3188878 1.1630638
-0.0401363 -0.07675873 -0.033416975 0.007825066 -0.23059496 0.10201729 -0.4267118 -0.061684288
0.20884544 -0.11592346 -0.055070765 -0.22621535 0.25735053 0.33473694 0.061736982 -0.01585959
-0.3656214 0.08682487 0.611645 -0.11116439 -0.31651145 0.045406856 -0.21259807 0.16576852
0.053978935 0.053768642 0.09810632 0.20755614 0.06429881 0.0086078895 0.03176359 -0.0010381832
-0.39998364 0.7927338 -0.1956042 0.24455744 -0.08368971 0.19557086 0.4217312 0.32163522
-0.39718738 0.121999145 0.33635685 -0.2514263 -0.45714378 0.014128907 0.10859771 0.27151015
-0.31551427 0.30544576 0.056880347 0.34107798 -0.24136585 0.19379504 0.05417836 0.34593138
0.005490841 0.21414724 0.04874759 0.2155152 -0.14288934 0.3071397 -0.39636248 -0.014748032
-0.09415284 -0.5074714 0.08748141 -0.09243011 -0.04382149 0.17928548 -0.25946558 0.18281597
-0.4710995 -0.041956153 0.30899712 0.1431311 0.053536665 0.32803333 -0.3868492 0.017189682
-0.16709834 -0.46691167 0.19296245 -0.9593145 -1.1054316 0.1491592 0.16234714 -0.041653275
-0.2904852 -0.2720393 -0.5985661 0.63318855 -0.21120532 0.029796548 -0.1464314 0.0064283684
0.19108047 -0.050277114 0.05582415 -0.064694524 -0.05443474 0.010826206 0.008803932 -0.029288026
-0.14421879 -0.17494132 -0.015832074 0.35602358 0.046985187 0.06434252 -0.2975559 -0.034885503
0.15093902 0.11150055 0.25651327 -0.035603587 -0.49446353 0.18570963 0.06482725 0.15604974
-0.51576173 -0.03388494 0.559671 0.19112338 0.53180385 0.15144967 -0.1354311 0.08710159
0.7303918 0.009929562 -0.13217896 -0.25539184 0.14235395 -0.45474166 -0.3109562 -0.20629935
0.8774594 -0.0045126034 -0.13745087 -0.7719422 0.60831696 0.658008 -0.5990328 -0.24769351
0.31551284 0.9679667 1.0611111 -0.4664498 0.67464495 0.10448261 0.3216626 0.2745504
0.008216301 -0.22959077 0.4540152 -0.40365767 0.8779079 -0.3588596 0.9631932 0.2495294
0.038797554 0.04855424 -0.09886568 -0.16494626 -0.08630706 -0.15415984 0.1633703 -0.11377422
-0.022862641 -0.15927508 0.15884309 0.1744918 0.008067419 0.7063408 -0.17778462 -0.09429907
-0.16217412 0.04316655 0.20251851 0.051596273 -0.12121864 0.06547142 0.1760665 0.20225538
-0.11930421 -0.13401751 0.509153 -0.325722 0.2747371 -0.09855288 -0.049071502 0.13144717
00000000: 9c0d 92bd 2265 03bf ab3b 923d 6cd9 063e
00000010: d630 82bd 5d57 0b3e dc0e 86be 1fd7 f53c
00000020: d191 bf3e 470e 70be 8008 d2bd 905c b4be
00000030: 9159 aa3d 5a8a bfbe 48cd 34bd 0fdf 063c
00000040: 415a 90be bc89 c03e 05e1 e03e d1f2 c0bd
00000050: 600b b6bd 1d25 8f3d 6633 3cbe 773a 6b3e
00000060: e7f0 25bf 6201 0fbe 946e ea3e 82c3 4b3e
00000070: 00ec 553f 6186 5b3e 1e88 973e a15a 353e
00000080: 27e7 0dbf 5209 4dbe 2f86 893d 0bba c5be
00000090: 1a03 3ebf 892d 2d3f db2d 023e 5c1a e13e
000000a0: e2f1 5ebe a6fe 11bf 4ebc ac3f 8e7d e6bf
000000b0: ba8f 2d3e 2eed a03f 261e 8bbf d271 afbf
000000c0: 0a07 673f 6d17 a53f 181a 903f b146 3fbe
000000d0: 8f54 523f 58f6 95be dba7 a23f 51bb 6f3f
000000e0: b9ac dfbd 6932 aebe 38c9 023f 6c7a 5abe
000000f0: 8f5a 62bf 705f 093f 4345 a33e 46df 943f
00000100: f665 24bd ae33 9dbd 3de0 08bd b534 003c
00000110: 1621 6cbe 71ee d03d f879 dabe aaa8 7cbd
00000120: 94db 553e 4769 edbd e291 61bd ffa4 67be
00000130: 73c3 833e a462 ab3e ebdf 7c3d f9eb 81bc
00000140: ba32 bbbe 3dd1 b13d c494 1c3f 28aa e3bd
00000150: ca0d a2be 8afc 393d 4fb3 59be 39bf 293e
00000160: 0419 5d3d 823c 5c3d f7eb c83d 9989 543e
00000170: 18af 833d 1b08 0d3c 8a1a 023d a613 88ba
00000180: a8ca ccbe 9af0 4a3f 784c 48be 446d 7a3e
00000190: 8365 abbd ba43 483e 27ed d73e 5fad a43e
000001a0: 255c cbbe b0da f93d f736 ac3e f3ba 80be
000001b0: c00e eabe ee7c 673c 7a68 de3d 6103 8b3e
000001c0: 168b a1be 6363 9c3e 5efb 683d c6a1 ae3e
000001d0: 9c28 77be 3572 463e 21ea 5d3d eb1d b13e
000001e0: 83ec b33b 6a49 5b3e 8eab 473d 04b0 5c3e
000001f0: 9551 12be 6a41 9d3e 06f0 cabe bba1 71bc
00000200: 34d3 c0bd a5e9 01bf 7429 b33d ff4b bdbd
00000210: 2a7e 33bd 9d96 373e acd8 84be 1c34 3b3e
00000220: f433 f1be 37da 2bbd df34 9e3e f690 123e
00000230: 4349 5b3d fcf3 a73e 1911 c6be 60d1 8c3c
00000240: d41b 2bbe 0c0f efbe f397 453e a395 75bf
00000250: c87e 8dbf 30bd 183e 543e 263e a09c 2abd
00000260: 7aba 94be bc48 8bbe a13b 19bf a518 223f
00000270: 3546 58be e417 f43c 1df2 15be 10a5 d23b
00000280: 99aa 433e 60ef 4dbd dda7 643d 907e 84bd
00000290: f6f6 5ebd 6660 313c 5e3e 103c 71ed efbc
000002a0: 17ae 13be d123 33be 44b2 81bc b948 b63e
000002b0: 8a73 403d 03c6 833d 3f59 98be 1ae4 0ebd
000002c0: c28f 1a3e 665a e43d b555 833e 11d5 11bd
000002d0: 532a fdbe aa2a 3e3e 26c4 843d 81cb 1f3e
000002e0: f608 04bf efca 0abd 9946 0f3f d9b5 433e
000002f0: 4c24 083f 9f15 1b3e 73ae 0abe 5262 b23d
00000300: f5fa 3a3f 9aaf 223c ec59 07be b8c2 82be
00000310: 3cc5 113e e6d3 e8be a735 9fbe 2340 53be
00000320: 2ea1 603f 76de 93bb ecbf 0cbe 019e 45bf
00000330: a9ba 1b3f 3673 283f 375a 19bf 5ea3 7dbe
00000340: e68a a13e aacc 773f 7dd2 873f 82d2 eebe
00000350: 88b5 2c3f fbfa d53d f6b0 a43e df91 8c3e
00000360: aa9d 063c d819 6bbe ae74 e83e 38ac cebe
00000370: 92be 603f 72bc b7be d493 763f a384 7f3e
00000380: 2fea 1e3d d0e0 463d 177a cabd ace7 28be
00000390: c2c1 b0bd 14dc 1dbe 8b4a 273e 7502 e9bd
000003a0: 6f4a bbbc 0219 23be c3a7 223e faad 323e
000003b0: 352d 043c c0d2 343f 2c0d 36be df1f c1bd
000003c0: f910 26be 69cf 303d 0361 4f3e 9d56 533d
000003d0: 7a41 f8bd e115 863d c74a 343e 091c 4f3e
000003e0: c455 f4bd e33b 09be da57 023f 09c5 a6be
000003f0: 57aa 8c3e 18d6 c9bd 33ff 48bd 169a 063e

rnn.bias_ih_l1 f4 [128]
-0.053348027 0.014648106 -0.071954094 -0.28131253 -0.09929901 -0.013750311 0.24328808 0.015655505
0.16798222 0.2626312 -0.46502227 0.0611382 -0.13787723 -0.08577456 -0.22474927 -0.020772152
0.102051534 0.03572206 0.010461621 -0.12528871 0.27241305 -0.1717815 -0.2545283 0.0018334805
-0.32287958 0.05429522 -0.03386088 -0.08739286 -0.33266515 0.08988898 -0.19784874 0.019471375
-0.028661946 0.20611452 0.06527877 -0.102784865 0.054597236 -0.039592523 -0.14444098 -0.01975286
-0.20026611 0.13479468 -0.16435263 -0.19913806 -0.1634276 -0.15623105 0.056641743 -0.044876028
0.042263903 0.22952041 0.12955928 0.116760865 0.2950681 -0.034410708 0.086833835 0.041156743
0.033712007 0.14716147 -0.34283015 -0.18201491 0.03786924 -0.0010794866 -0.016127756 -0.08959475
0.02047058 -0.29835284 -0.01226041 -0.044548873 -0.05417235 -0.14493613 0.016248552 -0.14645056
0.00857876 0.010734013 -0.12083539 0.048845414 0.009263649 -0.17789961 -0.06579929 0.12121798
-0.024239562 -0.047177844 -0.024241332 0.1323734 -0.001260536 -0.19656216 -0.074339494 -0.0040726475
0.020817002 0.061103966 0.058160204 0.21622305 0.25863698 -0.010903194 0.083439305 -0.15104765
0.14484328 0.19392338 -0.01940579 -0.47755072 -0.027095374 0.2031995 0.17273511 0.032374263
0.14932635 0.12630525 -0.6010111 0.036250867 -0.7103758 -0.32369325 0.010816778 0.04294941
0.2759942 0.29626223 -0.014003425 0.15670975 0.0031822985 -0.1171118 -0.120964274 -0.1667288
-0.28503746 0.13063268 0.10119203 -0.21217196 -0.51691246 -0.09863772 -0.046193674 0.07161037
00000000: 7683 5abd 9cfe 6f3c ab5c 93bd 3208 90be
00000010: 485d cbbd fc48 61bc 8320 793e f93f 803c
00000020: 8803 2c3e 9977 863e 6617 eebe 0d6c 7a3d
00000030: b02f 0dbe 93aa afbd ac24 66be 5c2a aabc
00000040: 6500 d13d 4b51 123d 3867 2b3c af4b 00be
00000050: b979 8b3e 7de7 2fbe 8951 82be 6651 f03a
00000060: 7950 a5be aa64 5e3d b5b1 0abd 07fb b2bd
00000070: 1653 aabe b717 b83d dc98 4abe 6f82 9f3c
00000080: 75cc eabc af0f 533e e0b0 853d df80 d2bd
00000090: 5aa1 5f3d c52b 22bd 56e8 13be c0d0 a1bc
000000a0: 8f12 4dbe 9e07 0a3e 0e4c 28be d9ea 4bbe
000000b0: 9159 27be 08fb 1fbe 2c01 683d edcf 37bd
000000c0: ea1c 2d3d 6607 6b3e 30ab 043e 5220 ef3d
000000d0: 2a13 973e 3ef2 0cbd f0d5 b13d f993 283d
000000e0: 9a15 0a3d 7fb1 163e 6f87 afbe 1e62 3abe
000000f0: c71c 1b3d 8f7d 8dba 5b1e 84bc 747d b7bd
00000100: ebb1 a73c b4c1 98be e3df 48bc e178 36bd
00000110: d3e3 5dbd 236a 14be af1b 853c 23f7 15be
00000120: ed8d 0c3c b7dd 2f3c 8c78 f7bd 2112 483d
00000130: 8fc6 173c 512b 36be c7c1 86bd 2241 f83d
00000140: 0c92 c6bc 8e3d 41bd c295 c6bc e48c 073e
00000150: 9238 a5ba 9747 49be 4e3f 98bd d873 85bb
00000160: 6b88 aa3c 2748 7a3d 6539 6e3d 9369 5d3e
00000170: 116c 843e 4fa3 32bc 3ae2 aa3d 3cac 1abe
00000180: cc51 143e da93 463e e4f8 9ebc 8781 f4be
00000190: 1ef7 ddbc 8813 503e 79e1 303e e09a 043d
000001a0: 02e9 183e 2a56 013e dddb 19bf ca7b 143d
000001b0: 30db 35bf 1fbb a5be db38 313c b8eb 2f3d
000001c0: 1d4f 8d3e afaf 973e 9f6e 65bc 8578 203e
000001d0: 1c8e 503b 50d8 efbd 1ebc f7bd f4ba 2abe
000001e0: 6ef0 91be 93c4 053e c43d cf3d 9b43 59be
000001f0: 6054 04bf 9302 cabd 9435 3dbd 75a8 923d

rnn.bias_hh_l1 f4 [128]
-0.095379785 0.0021622651 0.084337555 -0.1750941 0.16980934 0.1428133 0.22151071 -0.1442962
-0.10621094 0.22152656 -0.35456485 -0.16882946 -0.03440315 -0.24484804 -0.16629213 0.03793655
0.017078085 -0.035748485 -0.11481451 -0.115327895 -0.028887086 -0.045677703 -0.14241782 0.07755302
-0.3336468 -0.006081992 -0.019230122 -0.13384216 -0.40747878 -0.11048012 0.1384728 0.14431244
-0.30447778 0.23118474 -0.06760183 -0.14666921 -0.09007218 0.11207362 -0.13185938 0.026647946
-0.013148171 0.26740557 -0.079459496 0.09502487 0.11691204 -0.18490873 -0.15161012 0.06915133
-0.16729823 0.07648432 -0.10714538 0.037674114 0.23758191 -0.16862784 0.11624066 -0.1797546
0.14234433 0.11626941 -0.28229803 -0.057529267 0.08059084 0.052359927 -0.031109266 -0.045026783
-0.004759145 -0.1961826 -0.027123455 0.00911959 0.03901341 -0.05947748 -0.19507378 0.07647352
-0.031165669 -0.13434623 -0.18495363 -0.08892665 0.15167986 0.05545499 -0.051770553 0.11232358
0.1683244 0.05851411 0.044813838 0.007841541 0.07992008 -0.0074067796 0.011965935 -0.030921377
0.03568186 0.20070276 0.004059693 -0.11625009 0.14008889 -0.15367128 0.0023884508 -0.09085226
0.013315488 0.37531283 0.15475225 -0.38724124 0.031893767 0.059065282 0.36645472 0.15204877
-0.056287188 0.16278139 -0.61696076 -0.1580585 -0.5633633 -0.20625651 0.028598923 0.18508042
0.17613117 0.045811594 0.1610138 -0.1417161 -0.048555527 -0.061864037 -0.05450999 -0.17065677
-0.1216621 -0.10940683 -0.116801515 -0.23065594 -0.6350209 0.0071134553 -0.017307065 -0.06678144
00000000: 7a56 c3bd cab4 0d3b 2bb9 ac3d de4b 33be
00000010: 80e2 2d3e a63d 123e b4d3 623e 62c2 13be
00000020: 1f85 d9bd dcd7 623e 8689 b5be a1e1 2cbe
00000030: 51ea 0cbd 72b9 7abe 7c48 2abe 5b63 1b3d
00000040: 57e7 8b3c 016d 12bd df23 ebbd 0831 ecbd
00000050: 9ca4 ecbc 8b18 3bbd fad5 11be 1ed4 9e3d
00000060: c1d3 aabe 724b c7bb 7d88 9dbc eb0d 09be
00000070: 0fa1 d0be 6743 e2bd d0cb 0d3e a4c6 133e
00000080: 83e4 9bbe b1bb 6c3e d472 8abd 7430 16be
00000090: c377 b8bd db86 e53d 2506 07be cb4c da3c
000000a0: 6d6b 57bc 62e9 883e a9bb a2bd 669c c23d
000000b0: 946f ef3d b758 3dbe af3f 1bbe 369f 8d3d
000000c0: 3a50 2bbe d0a3 9c3d 096f dbbd 2c50 1a3d
000000d0: ac48 733e c7ac 2cbe 950f ee3d 9711 38be
000000e0: b6c2 113e a81e ee3d 5e89 90be cfa3 6bbd
000000f0: cf0c a53d 5d77 563d dcd8 febc 016e 38bd
00000100: 9af2 9bbb 17e4 48be 0232 debc 556a 153c
00000110: 87cc 1f3d a89e 73bd 6cc1 47be 269e 9c3d
00000120: 254f ffbc 0f92 09be 7c64 3dbe 2d1f b6bd
00000130: f751 1b3e c624 633d 5c0d 54bd e809 e63d
00000140: 3b5d 2c3e 7eac 6f3d b78e 373d cf79 003c
00000150: 24ad a33d 92b4 f2bb c50c 443c d44e fdbc
00000160: 2427 123d 0685 4d3e 2c07 853b 8714 eebd
00000170: 7673 0f3e 015c 1dbe 8e87 1c3b c010 babd
00000180: 3429 5a3c 0129 c03e 6077 1e3e 7c44 c6be
00000190: 0aa3 023d 70ee 713d f49f bb3e acb2 1b3e
000001a0: 658d 66bd 2ab0 263e 24f1 1dbf 16da 21be
000001b0: 9438 10bf e834 53be 4a48 ea3c b985 3d3e
000001c0: bb5b 343e f0a4 3b3d cde0 243e 061e 11be
000001d0: 29e2 46bd 2565 7dbd de45 5fbd a6c0 2ebe
000001e0: fb29 f9bd b010 e0bd a235 efbd 1231 6cbe
000001f0: bb90 22bf fd17 e93b 8cc7 8dbc b5c4 88bd

reg.0.weight f4 [32, 32]
0.1380562 -0.02846379 -0.1866454 0.034451567 0.11547399 -0.16478229 -0.13726035 -0.041402467
0.08483755 0.18850094 0.04268501 -0.11575549 -0.11065603 -0.01667194 -0.2296115 0.044594508
-0.10560056 -0.038918935 -0.018190203 -0.029153034 -0.040772483 -0.08644148 0.079783686 0.12043323
0.02577315 0.12136863 0.12884684 0.028590217 -0.13183492 -0.13392471 -0.12560229 -0.20112245
-0.022639848 0.17055142 -0.18090662 0.028036598 0.011473736 0.0805438 -0.17709449 0.02244966
-0.29912102 0.024905805 -0.17301472 0.006758921 0.19125158 0.045949064 -0.054961108 0.0034390239
0.018670809 0.19595298 0.08574059 -0.041391637 0.23217137 0.07920109 -0.20633204 -0.110224746
0.34008607 -0.029930895 -0.10919814 -0.0221121 0.3353788 0.027430892 -0.20813161 -0.008570371
0.15960677 -0.21468545 0.17504102 -0.012863896 -0.19576994 0.1840179 -0.042543285 0.15217456
0.0663505 -0.16722636 0.12466786 0.10295638 -0.10319973 -0.13365886 0.20496805 0.08999476
0.03656485 -0.046945717 0.07615671 -0.13678975 -0.07272117 0.02261475 -0.27479517 0.28274718
-0.24939735 -0.04375164 -0.014129293 -0.06003322 -0.18959129 0.21598826 -0.04555321 -0.0071790544
0.019846763 -0.19632669 0.14556916 -0.011890358 0.11997327 -0.16394429 0.032699633 0.14825228
0.31294304 0.13271485 0.21632412 0.20627385 -0.19364607 0.055990245 -0.21952021 0.14786175
0.078240715 -0.034286156 0.0071121547 0.21667464 -0.21693279 0.08586785 -0.05242942 -0.061053548
-0.28586167 0.0740117 0.13513553 -0.0703036 -0.07063213 -0.009648151 0.1675845 0.097407535
0.07760187 -0.033427183 0.053846303 -0.20404875 -0.07812561 -0.15085258 0.18787618 -0.043468483
0.15185815 0.05575305 5.0728727e-06 -0.028581798 -0.014896978 0.20344298 -0.18500231 0.03639757
0.1717753 -0.09713484 0.11831903 -0.058632493 -0.27857012 -0.040686443 -0.10147971 0.07302528
-0.33430076 0.029254291 -0.10243319 -0.013052208 -0.36918113 0.15342784 0.14123367 -0.075528845
0.042667147 -0.1016058 0.13336541 0.022862112 0.1934806 -0.1234765 -0.092966065 0.14580533
-0.022632645 0.021556448 0.095446795 0.06720339 -0.055971023 0.02796353 -0.05304097 0.08149542
0.017114544 -0.1698287 0.2056554 0.09976642 -0.077102296 -0.042813383 -0.08308656 -0.037485912
-0.23631285 -0.0330039 -0.0804097 -0.17916632 -0.19162892 0.058240637 0.22168826 -0.11339516
-0.12290593 0.04698639 0.08616507 -0.06187324 0.10517144 -0.085346445 -0.24446194 0.044986904
-0.08298411 0.12863529 -0.2818192 -0.13075583 0.08829649 -0.21249455 -0.008326274 -0.080268174
-0.22731341 0.19399582 -0.17757116 -0.19734398 0.119279996 0.012662268 0.1076353 0.09618416
0.08735248 -0.07890632 -0.18380523 0.02170564 0.05184201 -0.1177009 -0.18621707 -0.036811136
0.253609 -0.09807844 0.19149247 0.05424828 0.10628482 0.104439646 0.32463646 0.24700108
0.21792898 -0.044348877 0.26784196 0.34210032 -0.36798242 0.12622069 -0.07549238 -0.054859918
0.17590012 0.019647818 0.036823776 0.28608942 -0.26651996 0.1951433 0.16964711 0.2747104
-0.410511 -0.13176802 0.0021784499 -0.1135789 -0.46975082 0.047827255 0.090812035 -0.12121284
00000000: 9b5e 0d3e e52c e9bc f91f 3fbe 161d 0d3d
00000010: a17d ec3d b0bc 28be fa8d 0cbe a295 29bd
00000020: 4fbf ad3d 6406 413e 7ad6 2e3d 3711 edbd
00000030: a19f e2bd 9893 88bc 471f 6bbe bba8 363d
00000040: 1b45 d8bd 7669 1fbd 9f03 95bc 58d2 eebc
00000050: 0c01 27bd 3b08 b1bd a165 a33d b3a5 f63d
00000060: 3722 d33c 1e90 f83d 6df0 033e 0836 ea3c
00000070: bcff 06be 8f23 09be e39d 00be 0bf3 4dbe
00000080: 3477 b9bc 08a5 2e3e 963f 39be 02ad e53c
00000090: 56fc 3b3c 26f4 a43d 4258 35be 59e8 b73c
000000a0: 6426 99be 4207 cc3c c52a 31be f079 dd3b
000000b0: 74d7 433e 1635 3c3d e61e 61bd 3f61 613b
000000c0: 86f3 983c e6a7 483e c398 af3d 478a 29bd
000000d0: 55be 6d3e 2e34 a23d b548 53be 83bd e1bd
000000e0: c31f ae3e a331 f5bc 46a3 dfbd 6f24 b5bc
000000f0: c5b6 ab3e c0b6 e03c 7420 55be be6a 0cbc
00000100: f56f 233e 81d6 5bbe f43d 333e 17c3 52bc
00000110: ea77 48be 306f 3c3e de41 2ebd a6d3 1b3e
00000120: c5e2 873d 633d 2bbe dd51 ff3d cbda d23d
00000130: 615a d3bd dedd 08be 25e3 513e 2c4f b83d
00000140: 06c5 153d 274a 40bd 0df8 9b3d 9d12 0cbe
00000150: d6ee 94bd 9142 b93c f4b1 8cbe 3dc4 903e
00000160: 0562 7fbe eb34 33bd 8d7e 67bc 65e5 75bd
00000170: 3824 42be 072c 5d3e 0196 3abd 463e ebbb
00000180: ae95 a23c dd09 49be 1510 153e c7cf 42bc
00000190: 8cb4 f53d 03e1 27be 0df0 053d 72cf 173e
000001a0: 123a a03e 67e6 073e 1284 5d3e 7439 533e
000001b0: 284b 46be 0756 653d e8c9 60be 1269 173e
000001c0: ab3c a03d a46f 0cbd 140d e93b f5df 5d3e
000001d0: a123 5ebe 7cdb af3d 3bc0 56bd 4913 7abd
000001e0: 765c 92be 7293 973d f860 0a3e 55fb 8fbd
000001f0: 94a7 90bd 4713 1ebc 459b 2b3e 9a7d c73d
00000200: bbed 9e3d f1ea 08bd f18d 5c3d 28f2 50be
00000210: 5200 a0bd 1979 1abe 9d62 403e 020c 32bd
00000220: b480 1b3e 4f5d 643d a537 aa36 6024 eabc
00000230: 7412 74bc 5b53 503e 3f71 3dbe 9e15 153d
00000240: dde5 2f3e a2ee c6bd 3f51 f23d a028 70bd
00000250: bea0 8ebe d4a6 26bd 98d4 cfbd 478e 953d
00000260: 7829 abbe b2a6 ef3c 7ec8 d1bd eed8 55bc
00000270: 4f05 bdbe 301c 1d3e 8f9f 103e deae 9abd
00000280: bfc3 2e3d b416 d0bd f190 083e 5349 bb3c
00000290: c71f 463e 3fe1 fcbd fe64 bebd fe4d 153e
000002a0: 1968 b9bc 2697 b03c 9c79 c33d eea1 893d
000002b0: df41 65bd c613 e53c 7d41 59bd 12e7 a63d
000002c0: cd33 8c3c 93e7 2dbe 5497 523e 5652 cc3d
000002d0: cfe7 9dbd 165d 2fbd 4929 aabd d48a 19bd
000002e0: fffb 71be 192f 07bd d7ad a4bd 6077 37be
000002f0: 5f3a 44be bc8d 6e3d 3f02 633e b93b e8bd
00000300: 1bb6 fbbd cd74 403d 5077 b03d cb6e 7dbd
00000310: 2064 d73d 1eca aebd 3b54 7abe 3044 383d
00000320: 93f3 a9bd f8b8 033e 9b4a 90be dbe4 05be
00000330: cad4 b43d 2c98 59be ed6a 08bc a463 a4bd
00000340: d9c4 68be d7a6 463e 37d5 35be 8a14 4abe
00000350: 1249 f43d 6775 4f3c e56f dc3d 33fc c43d
00000360: dbe5 b23d a399 a1bd 7037 3cbe 07d0 b13c
00000370: 4a58 543d 2b0d f1bd b0af 3ebe 46c7 16bd
00000380: 0ad9 813e 59dd c8bd 9a16 443e 7233 5e3d
00000390: dbab d93d 74e4 d53d c036 a63e daed 7c3e
000003a0: c628 5f3e 2ba7 35bd 9522 893e c627 af3e
000003b0: 3168 bcbe ff3f 013e c09b 9abd cbb4 60bd
000003c0: 291f 343e 76f4 a03c 87d4 163d 507a 923e
000003d0: 4e75 88be a5d3 473e f9b7 2d3e d7a6 8c3e
000003e0: 7f2e d2be 32ee 06be 53c4 0e3b 0e9c e8bd
000003f0: 2e83 f0be 83e6 433d a9fb b93d 703e f8bd

reg.0.bias f4 [32]
-0.10392902 -0.1634441 0.09074896 -0.08729817 0.2024056 -0.08534552 -0.17447364 0.08717508
0.011277866 0.015633522 0.050455064 -0.18278943 -0.03676178 0.13747591 0.039539076 0.040432893
0.18602777 -0.17406404 0.17464994 0.027011555 0.056031566 -0.21045904 0.10549647 -0.017996097
-0.20488138 0.038987502 -0.017276643 0.07595706 -0.0037587637 -0.039313458 -0.16050427 0.14803362
00000000: bdd8 d4bd e45d 27be 97da b93d 62c9 b2bd
00000010: 6a43 4f3e a2c9 aebd 38a9 32be d988 b23d
00000020: ccc6 383c df11 803c f8a9 4e3d 272d 3bbe
00000030: 8593 16bd 7cc6 0c3e baf3 213d f69c 253d
00000040: 107e 3e3e d83d 32be 6fd7 323e 5647 dd3c
00000050: 5b81 653d 9382 57be 890e d83d 8d6c 93bc
00000060: 6dcc 51be 5cb1 1f3d bf87 8dbc 608f 9b3d
00000070: 9755 76bb 2607 21bd 3b5b 24be 2096 173e

reg.2.weight f4 [1, 32]
-0.019648433 -0.11438081 0.047504198 0.08157765 0.2081696 0.04576701 -0.13596788 0.12479753
0.087455325 0.045599718 -0.061572745 -0.1630582 -0.069627225 0.07144459 0.022713631 -0.093823515
0.07478938 -0.16397887 0.114279315 -0.050854724 0.0024510692 -0.13961272 -0.061872732 0.038129807
-0.1525515 0.00017138264 0.029144375 -0.07729401 0.03670291 0.0025724128 -0.17098159 0.11307652
00000000: c0f5 a0bc 7c40 eabd c393 423d 2f12 a73d
00000010: 692a 553e 3076 3b3d 2a3b 0bbe d995 ff3d
00000020: c71b b33d c5c6 3a3d b433 7cbd bbf8 26be
00000030: b898 8ebd 8b51 923d f011 ba3c 8b26 c0bd
00000040: 2d2b 993d 14ea 27be 460b ea3d 0b4d 50bd
00000050: 1ea2 203b a3f6 0ebe 436e 7dbd 002e 1c3d
00000060: 7636 1cbe 2db5 3339 2fc0 ee3c 524c 9ebd
00000070: ca55 163d ed95 283b cc15 2fbe aa94 e73d
