practice/files/mynet.pth (torch, 9487 bytes, 3 tensors)

fc.0.weight f4 [128, 13]
000000 d9 b1 d2 be e9 41 17 3f 4a e6 07 be e1 80 57 3f
       -0.41151312 0.59084946 -0.13271442 0.8418103
000010 03 e7 0e 3e bf 5e 07 3d 98 c9 0c bf 70 aa 09 bf
       0.13955311 0.03304934 -0.5499511 -0.5377569
000020 08 2b 91 3e 27 b7 3b 3e a8 03 13 3f 4d fd 0e 3e
       0.28353143 0.18331586 0.57427454 0.13963814
000030 7b 93 9e be f0 7b 55 be 0d 65 0d be 17 b5 ab be
       -0.30971894 -0.2084806 -0.13808079 -0.33536598
000040 83 36 54 3f b5 18 3c 3d aa 5b 96 3e 39 d8 82 bd
       0.8289568 0.045922 0.2936681 -0.063888974
000050 b1 44 4f 3f e2 8c 54 bd 04 1c 33 bf 87 09 91 3e
       0.8096419 -0.05189217 -0.69964623 0.2832758
000060 61 b6 b6 bd 3d db d0 bd 2e 70 34 3e 94 ba 2a 3f
       -0.08921505 -0.101980664 0.17620918 0.66690946
000070 79 d9 1c be b8 61 aa 3e e5 d8 df 39 8f b9 95 3d
       -0.15317334 0.33277678 0.00042695474 0.07310783
000080 a6 37 e0 3d 76 f5 b3 3e e8 05 18 3f 52 15 15 3f
       0.10948114 0.3514821 0.5938401 0.5823566
000090 1a 07 21 3f 9c 8a 4e 3e 6f d4 9a bd 6a 77 ae 3e
       0.6290146 0.20170063 -0.0756005 0.3407548
0000a0 bd b6 45 3e 92 8b 05 bf 4d 10 44 3d 79 4f 96 bd
       0.1930799 -0.5216609 0.047867108 -0.07339377
0000b0 99 40 b5 3e 78 d6 95 be ec e5 2d 3f 8e 8f 08 be
       0.35400847 -0.2926519 0.6792896 -0.13336012
0000c0 0c 8a 3d 3f 5c 6f 12 3f b0 ac f3 bd eb 72 88 be
       0.7403877 0.5720117 -0.11898172 -0.26650175
0000d0 71 e6 3c 3f ed d5 a5 3e 0c 5d 7d be 82 48 c6 3c
       0.73789126 0.32389775 -0.24742526 0.024204496
0000e0 53 9a 0f bf 31 0f 00 be 49 9c 2d 3f b9 26 df be
       -0.56094855 -0.12505795 0.678166 -0.4358423
0000f0 26 e8 b2 bd 6d b4 10 bf 88 8c 78 3e 6e a0 c3 3e
       -0.08735685 -0.5652531 0.24272358 0.38208336
000100 f7 38 98 be d1 1b 57 3e 85 6b 8b 3e 54 0e bc 3c
       -0.2973096 0.21006705 0.27230468 0.022956051
000110 80 d8 57 3f be 44 59 3f 6a 4a 56 bf 40 34 4e 3f
       0.8431473 0.8487052 -0.83707297 0.8054848
000120 ba 82 69 be ef d2 60 3e 96 f8 2c bf 12 ab c3 3d
       -0.22803774 0.21955465 -0.6756681 0.095541134
000130 5a 6c a9 be a2 eb 33 bf b1 ce e0 3c c4 2c 8a be
       -0.33090478 -0.7028142 0.027442308 -0.26987278
000140 c1 5e 70 be f6 a5 1c be f4 fc ee 3e ae d8 97 3d
       -0.23473646 -0.15297684 0.46677363 0.07414375
000150 b9 7f a9 bd fc b9 f8 3e c8 c6 af 3e 88 55 a5 be
       -0.08276314 0.48579395 0.34331346 -0.32291818
000160 a6 7b 22 3e 84 cf 9b be 6c 21 c4 be 57 33 97 3e
       0.1586748 -0.3043176 -0.3830675 0.29531357
000170 7e dd a6 3d 10 4a 05 bf f1 48 03 3f 17 f9 4b bf
       0.08147715 -0.52066135 0.51283175 -0.79676956
000180 c9 19 16 3c d1 31 e5 bd f3 61 56 3e 17 6d 09 bf
       0.009161421 -0.11191142 0.20935802 -0.5368208
000190 da b7 c1 3d b3 bd 7c 3d 7c a5 a3 3e 7b 3b 18 be
       0.09458895 0.06170435 0.31962192 -0.1486644
0001a0 c2 81 98 3f 05 ea a2 3e 93 4a 0e 3f 31 f8 f2 bd
       1.1914599 0.31819168 0.5558254 -0.11863745
0001b0 ce 7a 4f 3e e4 d8 16 3e ab fb 6b 3e 5a cd 03 3e
       0.2026169 0.14731175 0.23045222 0.12871304
0001c0 8b cd 98 3d 93 7c 1c be 26 17 26 be 01 f6 9c bd
       0.07461079 -0.15281896 -0.16219768 -0.07664109
0001d0 2b 9d a6 bc 71 62 6d 3e 36 1e 33 3e 07 67 37 be
       -0.020338615 0.23182084 0.17491993 -0.17910396
0001e0 d0 c7 1c bf 5f f4 20 bf 18 77 1a 3f 8e 9c 70 3d
       -0.6124239 -0.6287288 0.6033797 0.058743052
0001f0 25 28 30 3e 30 2f c5 3e 7b c1 90 bd 44 1c 11 3e
       0.17202814 0.38512564 -0.070681535 0.14170939
000200 45 6c 1a be 24 d6 72 bf 2a d2 42 3e d5 e7 bf 3e
       -0.15080364 -0.94858 0.19025484 0.3748156
000210 0a 1f 0f 3e 8e e8 13 3f c6 0b fd be 65 6d de 3e
       0.13976684 0.57776725 -0.49423045 0.43442836
000220 b3 52 94 3e 90 79 8b be 0a 5d 87 bd 80 47 0e bf
       0.28969344 -0.27241182 -0.06609543 -0.5557785
000230 11 c1 07 3e 67 f2 87 be 88 86 f0 bd 8f 1d cc be
       0.13257243 -0.26552126 -0.1174441 -0.398663
000240 bd 33 12 3f c8 2a b4 bf 1c 93 b6 bf 41 5a e2 be
       0.57110196 -1.4075556 -1.4263644 -0.44209483
000250 76 54 4b bf 2d da 82 bf e4 75 c8 be 3d b5 f8 3d
       -0.7942575 -1.0222832 -0.39152443 0.121439435
000260 6d 66 44 bf cf aa 1d bf 1d 6c 6b bf 37 94 bd be
       -0.7671879 -0.6158876 -0.9196184 -0.3702714
000270 fc b2 cd 3d 28 3b 96 bc 8c fc 4f bd b8 e0 bd bb
       0.10043904 -0.018338755 -0.050777957 -0.005794611
000280 d0 2c bd bd f1 08 ed 3e 9b 85 33 3e 55 b2 0d be
       -0.09237063 0.46295884 0.17531435 -0.1383756
000290 d8 ee cc 3d d9 f6 0c be e2 3c 47 3e 5c ac e6 bc
       0.10006493 -0.1376604 0.19456819 -0.02815836
0002a0 79 a0 b6 be e0 e3 85 3e 6e 0f de be 32 bb 49 bf
       -0.35669306 0.26150417 -0.43371147 -0.7880126
0002b0 fd 79 96 be 45 42 ea 3c 33 23 24 bf 8a 16 3e bf
       -0.29389945 0.028596053 -0.6411621 -0.7425314
0002c0 80 d9 ae be 41 f9 20 3d 8d 45 d6 3e f0 7d a1 3e
       -0.34150314 0.039300207 0.41849938 0.31541395
0002d0 4e 98 91 3f be 95 9d 3f 62 a3 34 bd 48 c8 84 3e
       1.1374605 1.2311323 -0.044101126 0.25934052
0002e0 29 1b 81 be 90 61 24 3c 31 cd ed 3c f1 54 e0 3e
       -0.25216034 0.010033026 0.029028507 0.43814805
0002f0 77 11 19 be 6d 09 61 3f 95 df 31 3f bb 23 a0 bc
       -0.14948069 0.8790501 0.69481784 -0.019548288
000300 5a 0a 74 3f 12 1f 13 3d 45 33 06 3f e1 3e a9 3e
       0.95328295 0.035918303 0.5242198 0.33055785
000310 0d 3e 99 3d f3 c2 35 be b5 09 5f be 91 46 35 3e
       0.07482538 -0.17750148 -0.21781047 0.177027
000320 ce 3c dc 3e 8c f4 1b 3f 1b 12 84 be 30 c7 00 be
       0.4301514 0.60920024 -0.25795063 -0.12575984
000330 03 58 a7 bf 2b d2 78 bb a7 aa 17 3e 7e c1 18 3f
       -1.3073734 -0.0037967067 0.14811192 0.59670246
000340 7f 4b 05 3d 02 92 8c be f6 01 98 bd 2c c2 21 3d
       0.0325427 -0.27455145 -0.07422249 0.039491817
000350 7d ff ac 3e d8 e8 b6 3e 90 b3 13 3e 20 17 6e be
       0.33788672 0.3572452 0.14423966 -0.23251009
000360 33 4e 24 3e 2b 05 37 be e4 3f 41 3e 80 46 86 bc
       0.16045456 -0.17873065 0.18872029 -0.016391039
000370 6a 4c f3 bb 57 51 36 be 7b 56 b7 3e 24 5f 3c bf
       -0.0074248808 -0.17804466 0.35808167 -0.73582673
000380 41 3f 87 3e 1e 80 86 3f cc fe ab be 8d ba f9 bd
       0.26415446 1.0507848 -0.33592832 -0.12193785
000390 1b ca 27 bf ba c2 b6 3e 15 b7 50 be e1 e8 3d 3e
       -0.65542763 0.3569544 -0.2038234 0.18545868
0003a0 0c a2 69 be 21 90 15 3e d4 b3 41 3f f2 d1 ea 3d
       -0.22815722 0.14605762 0.7566502 0.11465825
0003b0 af c2 5a 3e 46 c8 ae bd 6d ab b2 be aa d1 49 3e
       0.21363328 -0.08534293 -0.34896412 0.19708887
0003c0 b0 43 58 be c1 ae 37 3f 9f cf ee 3d 27 a5 1c 3f
       -0.2111957 0.7175103 0.11660694 0.611895
0003d0 32 04 26 3f 05 84 2f 3d d3 5f 29 bf 9c e6 22 3f
       0.6485015 0.042850513 -0.6616184 0.6363313
0003e0 54 50 aa 3e 1e e0 c9 be a4 9c 03 3e f2 82 6b bd
       0.3326441 -0.394288 0.12852722 -0.057497926
0003f0 67 9d c8 bd c2 be 82 be 62 24 df bd 9a 11 9b 3e
       -0.09795647 -0.25536162 -0.10895611 0.30286866

fc.0.bias f4 [128]
000000 20 2c 90 3e 6a 2c 8a 3f f7 ac 22 be b7 c4 a1 3f
       0.28158665 1.0794804 -0.15886293 1.2638158
000010 e0 32 8e 3e d0 a6 fb bc 1e d0 62 3f 3f 39 36 3f
       0.2777319 -0.03071919 0.8859881 0.711811
000020 cc 09 85 3d c2 0f 91 3f 09 fb 02 3f ba 89 84 bf
       0.06496009 1.1332934 0.511643 -1.0354531
000030 f3 ba 04 3f 2e fe 81 3f 26 61 4d be b6 2d 39 3f
       0.5184776 1.0155694 -0.2005659 0.72335374
000040 1b 0d 0b 3f 82 07 5a 3f 60 a1 7a 3f e3 ab 8b 3f
       0.5431687 0.85167706 0.9790249 1.0911831
000050 e3 d9 49 bd 2a 4a b0 3e f6 b7 cf 3e bb ad 42 be
       -0.04928006 0.34431583 0.4057004 -0.19011585
000060 55 a7 88 bf 97 f7 02 3f 33 be 70 3f 7d e6 cf 3e
       -1.0676066 0.5115904 0.9404022 0.40605536
000070 7a 88 10 3f 1d 5d 14 3f a8 7d 43 3f af f0 06 3f
       0.56458247 0.5795458 0.7636361 0.52711004
000080 1b 54 08 3f 5d 59 3c 3f 03 e8 9a 3e 86 8f ee 3e
       0.53253335 0.7357386 0.30255136 0.46593875
000090 1c 2d fd 3e fa 26 10 3f 0f e6 23 3f ac f8 74 3c
       0.49448478 0.56309474 0.64022917 0.014951866
0000a0 f7 18 06 3f 2d 95 32 3f 3d 64 cd 3e 15 dd d6 3e
       0.52381843 0.69758874 0.40115538 0.41965547
0000b0 84 3c 58 3e ef 36 bb 3e 00 a2 45 3f f5 5e b0 3e
       0.21116835 0.36565349 0.7720032 0.34447446
0000c0 47 c9 20 3f 75 35 1a 3f 69 cc 55 3f 42 7b 5b 3f
       0.62807125 0.6023782 0.8351503 0.8573495
0000d0 e4 d7 6d 3f 99 00 f2 3e 70 a5 c5 3e 85 89 d6 be
       0.9290755 0.4726608 0.3860278 -0.41901794
0000e0 44 02 c7 3e 75 d8 3b 3f 0e 12 5e 3e 09 fe 90 3e
       0.38868916 0.7337716 0.21686575 0.28318813
0000f0 b2 75 64 3f 20 15 fc 3e 6a 94 4b be 8a 81 6b 3f
       0.8924209 0.49234867 -0.19880834 0.91994536
000100 2f 93 b7 3e 7b 5b a8 be a0 49 a6 3e 7d d5 17 3d
       0.3585448 -0.32882294 0.32478046 0.037068833
000110 85 2a 29 3f 42 d8 9f 3e c1 7c b6 bd 9a 6e fa 3e
       0.66080505 0.3121968 -0.08910514 0.48912507
000120 0f c6 2e 3f d9 10 d4 3e 3f f8 5c 3f 50 de 0c 3f
       0.68270963 0.41419104 0.86316293 0.5502672
000130 a9 d1 40 3f ac 80 ac bf f3 8c ea 3e d3 a3 a5 3e
       0.75319916 -1.3476768 0.4581066 0.3235155
000140 9a d3 47 3f 52 32 28 3f 51 cb e3 3e 7d e3 7f be
       0.78057253 0.6570178 0.44491056 -0.24989124
000150 71 61 5c 3f 59 b1 c7 3e 51 01 70 3f 61 64 06 3f
       0.86086184 0.39002493 0.9375201 0.52496916
000160 25 8e f0 be 6f 75 9f 3e 62 f9 45 3f 0e e6 50 be
       -0.46983448 0.31144282 0.7733365 -0.20400259
000170 1e 57 02 3f 2f 10 e4 3e d8 16 ac 3e a2 ec 20 3f
       0.5091418 0.44543597 0.33611178 0.62861073
000180 90 3a 0f 3f 05 16 be 3f 36 0a b1 bf 01 49 02 3f
       0.55948734 1.485047 -1.3831241 0.50892645
000190 b6 c0 a5 be 71 ef 1c 3f 82 f2 f9 3e 4b 9a 6f bf
       -0.3237359 0.6130286 0.4881783 -0.9359481
0001a0 bd d5 2d 3f 22 30 f5 3e e2 9c 45 3f 25 23 17 3f
       0.67904264 0.47888285 0.7719251 0.59038
0001b0 72 42 3f 3f 4c 49 0c 3f 8b 3e 37 3f 9a 30 21 3f
       0.7471076 0.5479934 0.7157981 0.62964785
0001c0 3c 32 51 3f 8d 39 f0 3d 08 61 f0 3e ba 2b 42 3f
       0.81717277 0.11729727 0.4694903 0.7584797
0001d0 9f 97 13 be 2f 25 a9 3e 38 af 9a 3f 36 51 23 3f
       -0.14413308 0.3303618 1.2084723 0.63795793
0001e0 d5 58 2b 3f d3 ab 7d 3f 25 1d 26 3f d7 61 59 3f
       0.6693242 0.9909031 0.6488822 0.84914917
0001f0 aa 74 90 3e e1 29 20 3f e6 55 70 3f 52 bc 0f 3f
       0.28214008 0.625639 0.9388107 0.5614673

fc.2.weight f4 [1, 128]
000000 62 b8 3f 3f aa 04 53 bf cb ea cf 3e ac 49 5b bf
       0.7489072 -0.8242899 0.4060882 -0.8565929
000010 25 f3 60 3f b9 63 06 40 bb 23 d5 3e 82 8f 5a 3f
       0.8787101 2.0998366 0.41628823 0.85375226
000020 85 3a 05 3f 92 05 89 bf fe 20 20 3f 61 12 a9 bf
       0.5204242 -1.0704825 0.6255034 -1.3208734
000030 d8 ae ee 3c ce 33 02 c0 ba d2 0e 3f 82 46 9b 3f
       0.029136106 -2.034412 0.55790293 1.2130892
000040 f9 3d 78 3d 56 9c 8b 3f 83 1e 78 bf fa ff 95 bf
       0.060605977 1.0907085 -0.9692156 -1.1718743
000050 aa 3a 21 3f 4b d5 aa 3e 12 c0 48 3f 82 ba 8e bf
       0.6298014 0.33365855 0.78418076 -1.1150668
000060 b3 8f 87 c0 6e ff 01 3f 49 9f 32 3f bc 5d 0f 3e
       -4.2362914 0.5078038 0.697743 0.140006
000070 62 d3 0a 3f 52 45 a6 3e bb 73 bb be ef 37 a2 3e
       0.54228795 0.32474762 -0.36611733 0.316833
000080 b0 a7 3a 3f bf e6 46 3f 06 6d b7 3e 25 4d 84 3e
       0.7291212 0.7769584 0.35825366 0.25840107
000090 fa 45 2a 3e 71 aa 20 3f cc 7e 27 3f 4f 75 f2 3e
       0.16628256 0.6276007 0.6542785 0.47355124
0000a0 24 6e 82 3e 08 cc fe 3e df 32 07 3f 8d 96 c6 3e
       0.25474656 0.49765038 0.52812 0.38786736
0000b0 32 9e 3d 3f f2 36 86 3f ea 4b 82 3f 8c 1d ac 3f
       0.7406951 1.0485518 1.0179417 1.3446517
0000c0 37 65 8b 3f 06 d7 46 3e 49 ba 48 3f 26 df fb 3e
       1.0890263 0.19417962 0.7840925 0.49193686
0000d0 f7 87 e2 3e 85 ba a2 3d 0e 90 ed bf 19 ad 0a 3f
       0.44244358 0.07945732 -1.8559587 0.54170376
0000e0 2d df ca 3e 16 31 8c 3f a3 17 65 3f ed cd fb 3e
       0.39623395 1.095248 0.8948919 0.49180546
0000f0 39 ae 8e 3e 9e 8e 1d 3f 5c 07 c1 3e 76 6e c3 3e
       0.27867296 0.6154574 0.37700927 0.38170213
000100 63 7f 82 3f 38 4a f9 3f 24 dc 13 3f be 3a a6 bf
       1.0195125 1.9475775 0.5775778 -1.2986677
000110 db 41 b5 3e b2 b6 8b 3f 07 05 59 3f 5f 16 a3 3f
       0.35401806 1.0915129 0.84773296 1.2741202
000120 04 64 0e 3f 68 44 2a 3f 12 f4 be 3e fb 58 42 3f
       0.5562136 0.6651063 0.37295586 0.75917023
000130 32 04 34 3f a1 e8 48 c0 9e 30 51 3f 61 9a 6f 3f
       0.703189 -3.1391985 0.8171481 0.9359494
000140 aa 8e 7a 3f 37 95 22 3f 5f 54 df 3e 44 be e0 3e
       0.9787394 0.63508934 0.43619058 0.4389516
000150 7f 9f dd 3e 8c e7 0a 3f a9 1d 34 3f 1c 17 d9 3d
       0.43285748 0.5425956 0.7035776 0.10600111
000160 c6 e7 2f 40 d8 0d e4 3f e0 5f 30 3f 47 d5 10 3f
       2.7485213 1.7816725 0.68896294 0.56575435
000170 19 7f 13 3e c0 a4 e4 3e cd f2 76 3f 94 0e 95 3f
       0.14403953 0.44656944 0.96464235 1.1645074
000180 f7 95 a2 3d 27 1e b7 bf eb 40 20 c0 7d b4 28 3e
       0.0793876 -1.4306077 -2.5039623 0.16475101
000190 90 81 4d 40 66 60 e4 3e 33 f2 c9 3e 0d ca 08 c0
       3.2110329 0.44604796 0.39442596 -2.1373322
0001a0 31 3d 47 bf 21 fd 43 3e c3 9f 98 3f 72 b7 2d 3f
       -0.77827746 0.1913953 1.1923755 0.6785804
0001b0 93 ed 0c 3f a6 3c 65 be ab c1 b2 3e e8 1f 12 3f
       0.5505001 -0.22386417 0.34913382 0.57079935
0001c0 2e 8c df 3e 4f 97 c8 3e 70 4f 9c 3e 1a bf f6 3e
       0.43661636 0.3917794 0.30529356 0.48192674
0001d0 0e 0d 1e 3f ce 6d f6 3e 3b 78 8e bf be 44 29 3e
       0.6173867 0.4813065 -1.1130441 0.1653013
0001e0 ba 46 a1 3f 73 31 81 bf f4 d8 ea 3e 80 67 75 3f
       1.2599709 -1.0093216 0.45868647 0.95861053
0001f0 88 2d 46 3f 4e 5d 17 3f 41 b8 28 3f 9b 41 ec 3e
       0.77413225 0.59126747 0.6590615 0.46143803
